…
a = torch.cuda.is_available() device = torch.device(\"cuda\" if use_cuda else \"cpu\") print(device) model = Net().to(device) summary(model, input_size=(1, 28, 28)) <pre>Looking in indexes: https://pypi.org/simple, https://us-python.pkg.dev/colab-wheels/public/simple/\nRequirement already satisfied: torchsummary in /usr/local/lib/python3.10/dist-packages (1.5.1)\ncuda\n----------------------------------------------------------------\n        Layer (type)               Output Shape         Param #\n================================================================\n            Conv2d-1           [-1, 16, 26, 26]             144\n              ReLU-2           [-1, 16, 26, 26]               0\n       BatchNorm2d-3           [-1, 16, 26, 26]              32\n           Dropout-4           [-1, 16, 26, 26]               0\n            Conv2d-5           [-1, 32, 24, 24]           4,608\n              ReLU-6           [-1, 32, 24, 24]               0\n       BatchNorm2d-7           [-1, 32, 24, 24]              64\n           Dropout-8           [-1, 32, 24, 24]               0\n            Conv2d-9           [-1, 10, 24, 24]             320\n        MaxPool2d-10           [-1, 10, 12, 12]               0\n           Conv2d-11           [-1, 16, 10, 10]           1,440\n             ReLU-12           [-1, 16, 10, 10]               0\n      BatchNorm2d-13           [-1, 16, 10, 10]              32\n          Dropout-14           [-1, 16, 10, 10]               0\n           Conv2d-15             [-1, 16, 8, 8]           2,304\n             ReLU-16             [-1, 16, 8, 8]               0\n      BatchNorm2d-17             [-1, 16, 8, 8]              32\n          Dropout-18             [-1, 16, 8, 8]               0\n           Conv2d-19             [-1, 16, 6, 6]           2,304\n             ReLU-20             [-1, 16, 6, 6]               0\n      BatchNorm2d-21             [-1, 16, 6, 6]              32\n          Dropout-22             [-1, 16, 6, 6]               0\n           Conv2d-23             [-1, 16, 6, 6]           2,304\n             ReLU-24             [-1, 16, 6, 6]               0\n      BatchNorm2d-25             [-1, 16, 6, 6]              32\n          Dropout-26             [-1, 16, 6, 6]               0\n        AvgPool2d-27             [-1, 16, 1, 1]               0\n           Conv2d-28             [-1, 10, 1, 1]             160\n================================================================\nTotal params: 13,808\nTrainable params: 13,808\nNon-trainable params: 0\n----------------------------------------------------------------\nInput size (MB): 0.00\nForward/backward pass size (MB): 1.06\nParams size (MB): 0.05\nEstimated Total Size (MB): 1.12\n----------------------------------------------------------------\n</pre> I
…
a = torch.cuda.is_available() device = torch.device(\"cuda\" if use_cuda else \"cpu\") print(device) model = Net().to(device) summary(model, input_size=(1, 28, 28)) <pre>Looking in indexes: https://pypi.org/simple, https://us-python.pkg.dev/colab-wheels/public/simple/\nRequirement already satisfied: torchsummary in /usr/local/lib/python3.10/dist-packages (1.5.1)\ncuda\n----------------------------------------------------------------\n        Layer (type)               Output Shape         Param #\n================================================================\n            Conv2d-1           [-1, 32, 26, 26]             288\n              ReLU-2           [-1, 32, 26, 26]               0\n            Conv2d-3           [-1, 64, 24, 24]          18,432\n              ReLU-4           [-1, 64, 24, 24]               0\n            Conv2d-5          [-1, 128, 22, 22]          73,728\n              ReLU-6          [-1, 128, 22, 22]               0\n         MaxPool2d-7          [-1, 128, 11, 11]               0\n            Conv2d-8           [-1, 32, 11, 11]           4,096\n              ReLU-9           [-1, 32, 11, 11]               0\n           Conv2d-10             [-1, 64, 9, 9]          18,432\n             ReLU-11             [-1, 64, 9, 9]               0\n           Conv2d-12            [-1, 128, 7, 7]          73,728\n             ReLU-13            [-1, 128, 7, 7]               0\n           Conv2d-14             [-1, 10, 7, 7]           1,280\n             ReLU-15             [-1, 10, 7, 7]               0\n           Conv2d-16             [-1, 10, 1, 1]           4,900\n================================================================\nTotal params: 194,884\nTrainable params: 194,884\nNon-trainable params: 0\n----------------------------------------------------------------\nInput size (MB): 0.00\nForward/backward pass size (MB): 2.20\nParams size (MB): 0.74\nEstimated Total Size (MB): 2.94\n----------------------------------------------------------------\n</pre>
…
a = torch.cuda.is_available() device = torch.device(\"cuda\" if use_cuda else \"cpu\") print(device) model = Net().to(device) summary(model, input_size=(1, 28, 28)) <pre>Looking in indexes: https://pypi.org/simple, https://us-python.pkg.dev/colab-wheels/public/simple/\nRequirement already satisfied: torchsummary in /usr/local/lib/python3.10/dist-packages (1.5.1)\ncuda\n----------------------------------------------------------------\n        Layer (type)               Output Shape         Param #\n================================================================\n            Conv2d-1           [-1, 10, 26, 26]              90\n              ReLU-2           [-1, 10, 26, 26]               0\n            Conv2d-3           [-1, 10, 24, 24]             900\n              ReLU-4           [-1, 10, 24, 24]               0\n            Conv2d-5           [-1, 20, 22, 22]           1,800\n              ReLU-6           [-1, 20, 22, 22]               0\n         MaxPool2d-7           [-1, 20, 11, 11]               0\n            Conv2d-8           [-1, 10, 11, 11]             200\n              ReLU-9           [-1, 10, 11, 11]               0\n           Conv2d-10             [-1, 10, 9, 9]             900\n             ReLU-11             [-1, 10, 9, 9]               0\n           Conv2d-12             [-1, 20, 7, 7]           1,800\n             ReLU-13             [-1, 20, 7, 7]               0\n           Conv2d-14             [-1, 10, 7, 7]             200\n             ReLU-15             [-1, 10, 7, 7]               0\n           Conv2d-16             [-1, 10, 1, 1]           4,900\n================================================================\nTotal params: 10,790\nTrainable params: 10,790\nNon-trainable params: 0\n----------------------------------------------------------------\nInput size (MB): 0.00\nForward/backward pass size (MB): 0.41\nParams size (MB): 0.04\nEstimated Total Size (MB): 0.45\n----------------------------------------------------------------\n</pre> I
…
a = torch.cuda.is_available() device = torch.device(\"cuda\" if use_cuda else \"cpu\") print(device) model = Net().to(device) summary(model, input_size=(1, 28, 28)) <pre>Looking in indexes: https://pypi.org/simple, https://us-python.pkg.dev/colab-wheels/public/simple/\nRequirement already satisfied: torchsummary in /usr/local/lib/python3.10/dist-packages (1.5.1)\ncuda\n----------------------------------------------------------------\n        Layer (type)               Output Shape         Param #\n================================================================\n            Conv2d-1           [-1, 10, 26, 26]              90\n       BatchNorm2d-2           [-1, 10, 26, 26]              20\n              ReLU-3           [-1, 10, 26, 26]               0\n            Conv2d-4           [-1, 10, 24, 24]             900\n       BatchNorm2d-5           [-1, 10, 24, 24]              20\n              ReLU-6           [-1, 10, 24, 24]               0\n            Conv2d-7           [-1, 20, 22, 22]           1,800\n       BatchNorm2d-8           [-1, 20, 22, 22]              40\n              ReLU-9           [-1, 20, 22, 22]               0\n        MaxPool2d-10           [-1, 20, 11, 11]               0\n           Conv2d-11           [-1, 10, 11, 11]             200\n      BatchNorm2d-12           [-1, 10, 11, 11]              20\n             ReLU-13           [-1, 10, 11, 11]               0\n           Conv2d-14             [-1, 10, 9, 9]             900\n      BatchNorm2d-15             [-1, 10, 9, 9]              20\n             ReLU-16             [-1, 10, 9, 9]               0\n           Conv2d-17             [-1, 20, 7, 7]           1,800\n      BatchNorm2d-18             [-1, 20, 7, 7]              40\n             ReLU-19             [-1, 20, 7, 7]               0\n           Conv2d-20             [-1, 10, 7, 7]             200\n      BatchNorm2d-21             [-1, 10, 7, 7]              20\n             ReLU-22             [-1, 10, 7, 7]               0\n           Conv2d-23             [-1, 10, 1, 1]           4,900\n================================================================\nTotal params: 10,970\nTrainable params: 10,970\nNon-trainable params: 0\n----------------------------------------------------------------\nInput size (MB): 0.00\nForward/backward pass size (MB): 0.61\nParams size (MB): 0.04\nEstimated Total Size (MB): 0.65\n----------------------------------------------------------------\n</pre> I
…
a = torch.cuda.is_available() device = torch.device(\"cuda\" if use_cuda else \"cpu\") print(device) model = Net().to(device) summary(model, input_size=(1, 28, 28)) <pre>Looking in indexes: https://pypi.org/simple, https://us-python.pkg.dev/colab-wheels/public/simple/\nRequirement already satisfied: torchsummary in /usr/local/lib/python3.10/dist-packages (1.5.1)\ncuda\n----------------------------------------------------------------\n        Layer (type)               Output Shape         Param #\n================================================================\n            Conv2d-1           [-1, 10, 26, 26]              90\n       BatchNorm2d-2           [-1, 10, 26, 26]              20\n              ReLU-3           [-1, 10, 26, 26]               0\n            Conv2d-4           [-1, 10, 24, 24]             900\n       BatchNorm2d-5           [-1, 10, 24, 24]              20\n              ReLU-6           [-1, 10, 24, 24]               0\n            Conv2d-7           [-1, 20, 22, 22]           1,800\n       BatchNorm2d-8           [-1, 20, 22, 22]              40\n              ReLU-9           [-1, 20, 22, 22]               0\n          Dropout-10           [-1, 20, 22, 22]               0\n        MaxPool2d-11           [-1, 20, 11, 11]               0\n           Conv2d-12           [-1, 10, 11, 11]             200\n      BatchNorm2d-13           [-1, 10, 11, 11]              20\n             ReLU-14           [-1, 10, 11, 11]               0\n           Conv2d-15             [-1, 10, 9, 9]             900\n      BatchNorm2d-16             [-1, 10, 9, 9]              20\n             ReLU-17             [-1, 10, 9, 9]               0\n           Conv2d-18             [-1, 20, 7, 7]           1,800\n      BatchNorm2d-19             [-1, 20, 7, 7]              40\n             ReLU-20             [-1, 20, 7, 7]               0\n          Dropout-21             [-1, 20, 7, 7]               0\n           Conv2d-22             [-1, 10, 7, 7]             200\n      BatchNorm2d-23             [-1, 10, 7, 7]              20\n             ReLU-24             [-1, 10, 7, 7]               0\n           Conv2d-25             [-1, 10, 1, 1]           4,900\n================================================================\nTotal params: 10,970\nTrainable params: 10,970\nNon-trainable params: 0\n----------------------------------------------------------------\nInput size (MB): 0.00\nForward/backward pass size (MB): 0.69\nParams size (MB): 0.04\nEstimated Total Size (MB): 0.73\n----------------------------------------------------------------\n</pre> I
…
a = torch.cuda.is_available() device = torch.device(\"cuda\" if use_cuda else \"cpu\") print(device) model = Net().to(device) summary(model, input_size=(1, 28, 28)) <pre>Looking in indexes: https://pypi.org/simple, https://us-python.pkg.dev/colab-wheels/public/simple/\nRequirement already satisfied: torchsummary in /usr/local/lib/python3.10/dist-packages (1.5.1)\ncuda\n----------------------------------------------------------------\n        Layer (type)               Output Shape         Param #\n================================================================\n            Conv2d-1           [-1, 10, 26, 26]              90\n       BatchNorm2d-2           [-1, 10, 26, 26]              20\n              ReLU-3           [-1, 10, 26, 26]               0\n            Conv2d-4           [-1, 10, 24, 24]             900\n       BatchNorm2d-5           [-1, 10, 24, 24]              20\n              ReLU-6           [-1, 10, 24, 24]               0\n            Conv2d-7           [-1, 20, 22, 22]           1,800\n       BatchNorm2d-8           [-1, 20, 22, 22]              40\n              ReLU-9           [-1, 20, 22, 22]               0\n          Dropout-10           [-1, 20, 22, 22]               0\n        MaxPool2d-11           [-1, 20, 11, 11]               0\n           Conv2d-12           [-1, 10, 11, 11]             200\n      BatchNorm2d-13           [-1, 10, 11, 11]              20\n             ReLU-14           [-1, 10, 11, 11]               0\n           Conv2d-15             [-1, 10, 9, 9]             900\n      BatchNorm2d-16             [-1, 10, 9, 9]              20\n             ReLU-17             [-1, 10, 9, 9]               0\n           Conv2d-18             [-1, 20, 7, 7]           1,800\n      BatchNorm2d-19             [-1, 20, 7, 7]              40\n             ReLU-20             [-1, 20, 7, 7]               0\n          Dropout-21             [-1, 20, 7, 7]               0\n           Conv2d-22             [-1, 10, 7, 7]             200\n      BatchNorm2d-23             [-1, 10, 7, 7]              20\n             ReLU-24             [-1, 10, 7, 7]               0\n        AvgPool2d-25             [-1, 10, 1, 1]               0\n================================================================\nTotal params: 6,070\nTrainable params: 6,070\nNon-trainable params: 0\n----------------------------------------------------------------\nInput size (MB): 0.00\nForward/backward pass size (MB): 0.69\nParams size (MB): 0.02\nEstimated Total Size (MB): 0.71\n----------------------------------------------------------------\n</pre> In\
…
a = torch.cuda.is_available() device = torch.device(\"cuda\" if use_cuda else \"cpu\") print(device) model = Net().to(device) summary(model, input_size=(1, 28, 28)) <pre>Looking in indexes: https://pypi.org/simple, https://us-python.pkg.dev/colab-wheels/public/simple/\nRequirement already satisfied: torchsummary in /usr/local/lib/python3.10/dist-packages (1.5.1)\ncuda\n----------------------------------------------------------------\n        Layer (type)               Output Shape         Param #\n================================================================\n            Conv2d-1           [-1, 10, 26, 26]              90\n       BatchNorm2d-2           [-1, 10, 26, 26]              20\n              ReLU-3           [-1, 10, 26, 26]               0\n            Conv2d-4           [-1, 10, 24, 24]             900\n       BatchNorm2d-5           [-1, 10, 24, 24]              20\n              ReLU-6           [-1, 10, 24, 24]               0\n            Conv2d-7           [-1, 20, 22, 22]           1,800\n       BatchNorm2d-8           [-1, 20, 22, 22]              40\n              ReLU-9           [-1, 20, 22, 22]               0\n          Dropout-10           [-1, 20, 22, 22]               0\n        MaxPool2d-11           [-1, 20, 11, 11]               0\n           Conv2d-12           [-1, 10, 11, 11]             200\n      BatchNorm2d-13           [-1, 10, 11, 11]              20\n             ReLU-14           [-1, 10, 11, 11]               0\n           Conv2d-15             [-1, 10, 9, 9]             900\n      BatchNorm2d-16             [-1, 10, 9, 9]              20\n             ReLU-17             [-1, 10, 9, 9]               0\n           Conv2d-18             [-1, 20, 7, 7]           1,800\n      BatchNorm2d-19             [-1, 20, 7, 7]              40\n             ReLU-20             [-1, 20, 7, 7]               0\n          Dropout-21             [-1, 20, 7, 7]               0\n           Conv2d-22             [-1, 32, 5, 5]           5,760\n      BatchNorm2d-23             [-1, 32, 5, 5]              64\n             ReLU-24             [-1, 32, 5, 5]               0\n           Conv2d-25             [-1, 10, 5, 5]             320\n        AvgPool2d-26             [-1, 10, 1, 1]               0\n================================================================\nTotal params: 11,994\nTrainable params: 11,994\nNon-trainable params: 0\n----------------------------------------------------------------\nInput size (MB): 0.00\nForward/backward pass size (MB): 0.70\nParams size (MB): 0.05\nEstimated Total Size (MB): 0.75\n----------------------------------------------------------------\n</pre> I
…
a = torch.cuda.is_available() device = torch.device(\"cuda\" if use_cuda else \"cpu\") print(device) model = Net().to(device) summary(model, input_size=(1, 28, 28)) <pre>Looking in indexes: https://pypi.org/simple, https://us-python.pkg.dev/colab-wheels/public/simple/\nRequirement already satisfied: torchsummary in /usr/local/lib/python3.10/dist-packages (1.5.1)\ncuda\n----------------------------------------------------------------\n        Layer (type)               Output Shape         Param #\n================================================================\n            Conv2d-1           [-1, 32, 28, 28]             320\n            Conv2d-2           [-1, 64, 28, 28]          18,496\n         MaxPool2d-3           [-1, 64, 14, 14]               0\n            Conv2d-4          [-1, 128, 14, 14]          73,856\n            Conv2d-5          [-1, 256, 14, 14]         295,168\n         MaxPool2d-6            [-1, 256, 7, 7]               0\n            Conv2d-7            [-1, 512, 5, 5]       1,180,160\n            Conv2d-8           [-1, 1024, 3, 3]       4,719,616\n            Conv2d-9             [-1, 10, 1, 1]          92,170\n================================================================\nTotal params: 6,379,786\nTrainable params: 6,379,786\nNon-trainable params: 0\n----------------------------------------------------------------\nInput size (MB): 0.00\nForward/backward pass size (MB): 1.51\nParams size (MB): 24.34\nEstimated Total Size (MB): 25.85\n----------------------------------------------------------------\n
…
